…
140000 -- 30000 -- 30000

time to split:   0.00 (m)

Loading models..
Model: "PFN_base"
__________________________________________________________________________________________________
Layer (type)                    Output Shape         Param #     Connected to                     
==================================================================================================
input (InputLayer)              [(None, 1380, 4)]    0                                            
__________________________________________________________________________________________________
t_dist_0 (TimeDistributed)      (None, 1380, 100)    500         input[0][0]                      
__________________________________________________________________________________________________
activation_0 (Activation)       (None, 1380, 100)    0           t_dist_0[0][0]                   
__________________________________________________________________________________________________
t_dist_1 (TimeDistributed)      (None, 1380, 100)    10100       activation_0[0][0]               
__________________________________________________________________________________________________
activation_1 (Activation)       (None, 1380, 100)    0           t_dist_1[0][0]                   
__________________________________________________________________________________________________
t_dist_2 (TimeDistributed)      (None, 1380, 128)    12928       activation_1[0][0]               
__________________________________________________________________________________________________
mask (Lambda)                   (None, 1380)         0           input[0][0]                      
__________________________________________________________________________________________________
activation_2 (Activation)       (None, 1380, 128)    0           t_dist_2[0][0]                   
__________________________________________________________________________________________________
sum (Dot)                       (None, 128)          0           mask[0][0]                       
                                                                 activation_2[0][0]               
__________________________________________________________________________________________________
dense_0 (Dense)                 (None, 100)          12900       sum[0][0]                        
__________________________________________________________________________________________________
activation_3 (Activation)       (None, 100)          0           dense_0[0][0]                    
__________________________________________________________________________________________________
dense_1 (Dense)                 (None, 100)          10100       activation_3[0][0]               
__________________________________________________________________________________________________
activation_4 (Activation)       (None, 100)          0           dense_1[0][0]                    
__________________________________________________________________________________________________
dense_2 (Dense)                 (None, 100)          10100       activation_4[0][0]               
__________________________________________________________________________________________________
activation_5 (Activation)       (None, 100)          0           dense_2[0][0]                    
__________________________________________________________________________________________________
output (Dense)                  (None, 1)            101         activation_5[0][0]               
__________________________________________________________________________________________________
activation_6 (Activation)       (None, 1)            0           output[0][0]                     
==================================================================================================
Total params: 56,729
Trainable params: 56,729
Non-trainable params: 0
__________________________________________________________________________________________________

Training model..

Epoch 1/300
 1/88 [..............................] - ETA: 3:32 - lo
…
