…
140000 -- 30000 -- 30000

time to split:   0.00 (m)

Loading models..
Model: "PFN_wTNet"
__________________________________________________________________________________________________
Layer (type)                    Output Shape         Param #     Connected to                     
==================================================================================================
input (InputLayer)              [(None, 1086, 5)]    0                                            
__________________________________________________________________________________________________
t_dist_0 (TimeDistributed)      (None, 1086, 50)     300         input[0][0]                      
__________________________________________________________________________________________________
activation_0 (Activation)       (None, 1086, 50)     0           t_dist_0[0][0]                   
__________________________________________________________________________________________________
t_dist_1 (TimeDistributed)      (None, 1086, 100)    5100        activation_0[0][0]               
__________________________________________________________________________________________________
activation_1 (Activation)       (None, 1086, 100)    0           t_dist_1[0][0]                   
__________________________________________________________________________________________________
t_dist_2 (TimeDistributed)      (None, 1086, 100)    10100       activation_1[0][0]               
__________________________________________________________________________________________________
activation_2 (Activation)       (None, 1086, 100)    0           t_dist_2[0][0]                   
__________________________________________________________________________________________________
tnet_0_MaxPool (MaxPooling1D)   (None, 1, 100)       0           activation_2[0][0]               
__________________________________________________________________________________________________
tnet_0_dense_0 (Dense)          (None, 1, 100)       10100       tnet_0_MaxPool[0][0]             
__________________________________________________________________________________________________
tnet_0_dense_1 (Dense)          (None, 1, 50)        5050        tnet_0_dense_0[0][0]             
__________________________________________________________________________________________________
pre_matrix_0 (Dense)            (None, 1, 25)        1275        tnet_0_dense_1[0][0]             
__________________________________________________________________________________________________
matrix_0 (Reshape)              (None, 5, 5)         0           pre_matrix_0[0][0]               
__________________________________________________________________________________________________
matrix_multiply_0 (Dot)         (None, 1086, 5)      0           input[0][0]                      
                                                                 matrix_0[0][0]                   
__________________________________________________________________________________________________
t_dist_3 (TimeDistributed)      (None, 1086, 100)    600         matrix_multiply_0[0][0]          
__________________________________________________________________________________________________
activation_3 (Activation)       (None, 1086, 100)    0           t_dist_3[0][0]                   
__________________________________________________________________________________________________
t_dist_4 (TimeDistributed)      (None, 1086, 100)    10100       activation_3[0][0]               
__________________________________________________________________________________________________
activation_4 (Activation)       (None, 1086, 100)    0           t_dist_4[0][0]                   
__________________________________________________________________________________________________
t_dist_5 (TimeDistributed)      (None, 1086, 128)    12928       activation_4[0][0]               
__________________________________________________________________________________________________
mask (Lambda)                   (None, 1086)         0           input[0][0]                      
__________________________________________________________________________________________________
activation_5 (Activation)       (None, 1086, 128)    0           t_dist_5[0][0]                   
__________________________________________________________________________________________________
sum (Dot)                       (None, 128)          0           mask[0][0]                       
                                                                 activation_5[0][0]               
__________________________________________________________________________________________________
dense_6 (Dense)                 (None, 100)          12900       sum[0][0]                        
__________________________________________________________________________________________________
activation_6 (Activation)       (None, 100)          0           dense_6[0][0]                    
__________________________________________________________________________________________________
dense_7 (Dense)                 (None, 100)          10100       activation_6[0][0]               
__________________________________________________________________________________________________
activation_7 (Activation)       (None, 100)          0           dense_7[0][0]                    
__________________________________________________________________________________________________
dense_8 (Dense)                 (None, 100)          10100       activation_7[0][0]               
__________________________________________________________________________________________________
activation_8 (Activation)       (None, 100)          0           dense_8[0][0]                    
__________________________________________________________________________________________________
output (Dense)                  (None, 1)            101         activation_8[0][0]               
__________________________________________________________________________________________________
activation_9 (Activation)       (None, 1)            0           output[0][0]                     
==================================================================================================
Total params: 88,754
Trainable params: 88,754
Non-trainable params: 0
__________________________________________________________________________________________________

Training model..

Epoch 1/800
Traceback (most recent call last):
  File "train_pflow.py", line 177, in <module>
…
